position inference/models/92.28.pth (torch_old, 834281 bytes, 12 tensors)

idC.weight f4 [65, 141]
0	0xbe37f172	-0.17963198
1	0xbe396e4a	-0.18108478
2	0xbe3e224e	-0.18567774
3	0x3e322f72	0.17400911
4	0xbd42145f	-0.04738271
5	0xbd203ee8	-0.039122492
6	0xbe377122	-0.1791425
7	0xbdea7404	-0.114479095
8	0xbe39f720	-0.18160677
9	0xbe2d4719	-0.16921653
10	0x3f0f5abb	0.5599782
11	0x3e9b722d	0.30360547
12	0x3d1f135d	0.038836826
13	0x3e7aba7d	0.24485202
14	0xbe24ce20	-0.16094255
15	0xbe38707a	-0.18011656
16	0x3e54b641	0.2077265
17	0xbd14992e	-0.036278896
18	0xbe3c5d44	-0.18394953
19	0xbe3834a7	-0.17988835
20	0x3dc1d525	0.09464482
21	0xbe3205d9	-0.17385043
22	0xbe330536	-0.17482457
23	0xbd020079	-0.031738732
24	0xbe232062	-0.15930322
25	0xbb4c7db4	-0.0031202855
26	0xbe2ae9ef	-0.16690801
27	0x3e23a739	0.15981759
28	0xbe31a5d6	-0.17348418
29	0xbdbc91cf	-0.09207498
30	0xbcb146a5	-0.021640131
31	0xbd8cdd1c	-0.06878111
32	0xbe368d38	-0.17827308
33	0xbca03aa7	-0.019559218
34	0x3ae90ddd	0.0017780621
35	0xbe3c22fc	-0.1837272
36	0x3d9ab3c4	0.07553819
37	0xbe3a7f8a	-0.18212715
38	0x3e960394	0.29299605
39	0xbe3aa4b1	-0.18226887
40	0x3cbf9485	0.02338625
41	0x3e998f25	0.29992023
42	0xbe36a1a8	-0.17835104
43	0xbe408d5d	-0.18803926
44	0xbe3b83ee	-0.18312046
45	0xbe39c2c7	-0.18140708
46	0x3e4df6c7	0.2011367
47	0xbe359d79	-0.17735852
48	0x3da2401f	0.079223864
49	0x3e2e16a4	0.17000824
50	0xbe38d106	-0.18048486
51	0xbe3a4e85	-0.18194015
52	0xbe378533	-0.17921905
53	0x3e34c6ed	0.17654009
54	0xbd622e97	-0.055220213
55	0x3c72b0a5	0.014812623
56	0xbe390f5f	-0.1807227
57	0xbe296200	-0.1654129
58	0xbe389080	-0.18023872
59	0xbdf38b03	-0.11891749
60	0x3cb27923	0.021786278
61	0xbe31b87e	-0.17355534
62	0x3e702890	0.23452973
63	0xbb900e98	-0.004396271
64	0xbe37a98f	-0.17935775
65	0x3e814509	0.25247982
66	0x3e88d283	0.26723108
67	0xbc9d858c	-0.01922872
68	0xbd8d102c	-0.0688785
69	0x3d14116a	0.03614942
70	0xbe4038be	-0.18771645
71	0x3d678981	0.05652762
72	0xbe4417e5	-0.1914974
73	0xbe38df3f	-0.18053912
74	0x3e762841	0.24038793
75	0x3efe9b14	0.4972769
76	0x3e33e284	0.17566878
77	0x3ed6c526	0.41947287
78	0x3d78df60	0.060759902
79	0xbe315e5b	-0.1732115
80	0xbe271e54	-0.16320163
81	0xbe2bf313	-0.16791944
82	0xbe39c0a6	-0.18139896
83	0x3e08b493	0.13350134
84	0xbe304bc7	-0.17216407
85	0x3e3fc17a	0.18726149
86	0x3c9aaeed	0.01888224
87	0xbe38110c	-0.17975253
88	0x3e6eb62c	0.2331168
89	0xbe1639f0	-0.14670539
90	0xbe069811	-0.13143946
91	0xbe09794c	-0.13425177
92	0xbe14053a	-0.14455119
93	0xbe376979	-0.17911328
94	0xbe37ff87	-0.1796857
95	0x3e01b288	0.1266576
96	0x3d2e5dc7	0.0425699
97	0x3db771ef	0.08957278
98	0x3ded2e29	0.1158107
99	0xbe3903a4	-0.18067795
100	0xbe34c6d6	-0.17653975
101	0x3e4cb78c	0.19991893
102	0xbd9ca317	-0.076482944
103	0xbd177c90	-0.036984026
104	0x3ea9ffbf	0.3320293
105	0x3f0b531c	0.5442369
106	0xbe38077b	-0.17971604
107	0xbe398edb	-0.18120901
108	0x3e695842	0.22787574
109	0xbc1913b5	-0.009343077
110	0xbe38f3f7	-0.18061815
111	0x3e97b791	0.29632238
112	0x3e2776a5	0.16353853
113	0x3e72da2b	0.23716037
114	0xbe36be53	-0.1784604
115	0xbe36642e	-0.17811653
116	0xbcd09a7f	-0.025464294
117	0xbe37d81d	-0.17953534
118	0xbe36ecac	-0.1786372
119	0xbe23e102	-0.16003802
120	0xbe11b433	-0.14228897
121	0x3db23d0e	0.087030515
122	0xbe072248	-0.13196671
123	0xbe49186d	-0.19638224
124	0x3e863e84	0.2621957
125	0xbe381792	-0.17977741
126	0xbe399f64	-0.18127209
127	0xbe3b744b	-0.18306081
128	0x3db35e30	0.08758199
129	0xbe372ec2	-0.1788893
130	0x3de97d95	0.11400906
131	0x3ea5ff1d	0.32421198
132	0xbe37ce43	-0.17949776
133	0xbe396062	-0.18103173
134	0xbe2a0bc0	-0.16606045
135	0x3dabde51	0.08392013
136	0xbe33f978	-0.17575634
137	0xbd8866c0	-0.06660223
138	0x3e32a2fc	0.17444986
139	0xba133a05	-0.00056162506
140	0x3e7ce4d9	0.24696673
141	0x3e24b714	0.16085464
142	0x3c1232f0	0.008923277
143	0x3d731a5e	0.059351318
144	0xbd35b230	-0.044359386
145	0x3e0da4ec	0.13832444
146	0x3dea94e7	0.11454182
147	0xbcc67409	-0.024225252
148	0xbe22d7d2	-0.15902641
149	0xbe301288	-0.17194569
150	0xbe2bd0c4	-0.16778857
151	0x3f0b308f	0.5437097
152	0x3f0674c4	0.5252192
153	0xbd4aa22b	-0.04947106
154	0x3d5e411f	0.054261323
155	0xbe3730ff	-0.17889784
156	0x3d592d3e	0.053021662
157	0xbd29bd5b	-0.04144035
158	0x3dea39c7	0.114368014
159	0xbe36fd38	-0.17870033
160	0x3ea3976d	0.31951466
161	0xbe388dca	-0.18022838
162	0xbe391b2b	-0.1807677
163	0x3e581ed4	0.2110551
164	0xbe169121	-0.147038
165	0xbd88147e	-0.066445336
166	0xbe25df40	-0.16198444
167	0xbe3c071d	-0.18362089
168	0xbe281a21	-0.16416217
169	0x3eea5b75	0.457729
170	0xbe33a3bc	-0.17542928
171	0xbe22bc93	-0.15892248
172	0xbd9532ec	-0.07285103
173	0x3ef7e199	0.48414305
174	0x3f2c9fc1	0.67431265
175	0x3b4305fb	0.0029758203
176	0xbe22826c	-0.15870064
177	0x3d146580	0.03622961
178	0xbe34ab47	-0.17643462
179	0x3ee2c441	0.44290355
180	0xbd67ef76	-0.056624852
181	0xbe296f67	-0.16546403
182	0xbdb8a642	-0.09016086
183	0xbd93cd85	-0.07216934
184	0x3e54b1f4	0.20771009
185	0xbd35c1bd	-0.044374216
186	0xbe30e879	-0.17276181
187	0xbe3567e1	-0.17715408
188	0xbe359482	-0.17732432
189	0xbe2f7cf1	-0.17137505
190	0x3b386286	0.0028134896
191	0xbe320970	-0.17386413
192	0xbe2fe05a	-0.17175427
193	0xbe3a844e	-0.18214533
194	0xbe229520	-0.15877199
195	0x3ddb21bf	0.10699796
196	0x3e36413b	0.17798321
197	0x3e0fb42c	0.14033574
198	0xbe3c2bbc	-0.18376058
199	0xbe248b2c	-0.16068715
200	0xbe2f8ece	-0.1714432
201	0xbe3839c7	-0.1799079
202	0x3e48e6ca	0.19619289
203	0xbca818e7	-0.020519687
204	0x3e550113	0.20801191
205	0xbe3afa5f	-0.18259571
206	0x3e7a585e	0.24447772
207	0x3d730be8	0.059337527
208	0x3e579e5e	0.21056506
209	0xbcd16487	-0.02556063
210	0x3e9cc04b	0.30615458
211	0xbce72ac6	-0.028218638
212	0xbe3634f4	-0.17793638
213	0x3e057f0e	0.13036749
214	0xbe1b1b18	-0.15147054
215	0x3bbc725b	0.005750937
216	0xbb884404	-0.0041584987
217	0x3eb833f9	0.35977152
218	0x3ea0a6bd	0.3137721
219	0xbe22bcf0	-0.15892386
220	0xbd9c9d96	-0.07647245
221	0x3d64f0eb	0.05589382
222	0x3d9f28c5	0.07771448
223	0xbe302809	-0.17202772
224	0x3e974c77	0.29550526
225	0x3e3cae0b	0.18425767
226	0x3e01deea	0.12682691
227	0x3e812f03	0.2523118
228	0x3e58caca	0.21171108
229	0xbe397bea	-0.18113676
230	0xbddb5624	-0.107097894
231	0x3cd26773	0.025684094
232	0x3eccf7a7	0.40032694
233	0x3ceb71c0	0.028740764
234	0x3e6e8fab	0.23296992
235	0xbd16550c	-0.0367022
236	0xbc5af7d6	-0.013364753
237	0xbe33bc65	-0.17552336
238	0xbe30e3c4	-0.17274386
239	0x3e254e6e	0.161432
240	0xbcbe44d3	-0.023226177
241	0x3ebca9e4	0.36848366
242	0x3e3858b3	0.18002586
243	0xbe369def	-0.17833684
244	0xbe204f31	-0.15655209
245	0xbe09f5ce	-0.13472673
246	0x3eb31167	0.34974214
247	0xbe394ab1	-0.18094899
248	0xbe22cf27	-0.15899335
249	0x3d9f870d	0.07789431
250	0xbe323366	-0.1740242
251	0x3ea3a214	0.31959593
252	0x3e82e536	0.255655
253	0x3eed5ee7	0.46361467
254	0x3dacee7e	0.08443926
255	0xbe38d063	-0.18048243

idC.bias f4 [65]
0	0x3e365ba7	0.178084
1	0x3df28c7d	0.11843202
2	0x3c49c2f8	0.012314551
3	0x3dff6c02	0.12471773
4	0x3cc4e65f	0.02403563
5	0x3d8cc1d7	0.068729095
6	0x3cb3b9f9	0.021939265
7	0x3d112ed8	0.035445064
8	0x3c38db1f	0.011282711
9	0x3d5760d7	0.052582588
10	0xbd04f626	-0.032461308
11	0x3d7da82a	0.061927952
12	0x3df30ecc	0.11868057
13	0x3c9b758c	0.01897695
14	0x3c46d3e8	0.012135483
15	0xbd7ed965	-0.062219042
16	0x3dea3e51	0.11437667
17	0x3d9a7f2f	0.075437896
18	0x3d1ccff9	0.038284276
19	0x3dc90e6e	0.09817205
20	0x3db5bb26	0.08873586
21	0x3de4407a	0.111451104
22	0x3ce9009d	0.028442675
23	0xbccdd276	-0.02512477
24	0x3db34f3d	0.08755348
25	0x3dff2d0f	0.12459766
26	0x3b4c0558	0.0031131115
27	0x3dca681f	0.09883141
28	0x3db5cc37	0.088768415
29	0xbdb4b57f	-0.0882368
30	0x3d397d3d	0.045285452
31	0x3e0073f2	0.1254423
32	0x3d837557	0.06418865
33	0x3d07247f	0.03299379
34	0x3e1afd7d	0.1513576
35	0x3b5473eb	0.0032417725
36	0x3ce89d7e	0.02839541
37	0x3dbab6be	0.091168866
38	0x3d8b6cca	0.06807859
39	0x3d8aba77	0.067738466
40	0xbdab50bf	-0.083650105
41	0x3e602151	0.21887709
42	0x3c6a2eab	0.014293353
43	0x3df74832	0.12074317
44	0x3da8d2a8	0.082433045
45	0xbdb25e53	-0.08709397
46	0x3d2a6476	0.041599713
47	0x3ca32022	0.019912783
48	0xbc4cbe4b	-0.012496541
49	0x3e1169e5	0.14200552
50	0x3da4eefd	0.08053396
51	0x3ddade4d	0.10686932
52	0x3d2b1bb2	0.04177446
53	0x3d817a2c	0.063221306
54	0xbde4a437	-0.11164134
55	0x3d65be2d	0.05608957
56	0x3df77cf2	0.12084378
57	0x3e006446	0.12538251
58	0xbda4aaa0	-0.08040357
59	0x3db10b9a	0.08644791
60	0x3cec7e10	0.028868705
61	0x3e16cbf6	0.14726242
62	0x3defacce	0.11702882
63	0x3dcbea98	0.099568546
64	0x3da1c6fb	0.07899281

runeC.weight f4 [12, 17]
0	0xbe8921d9	-0.26783636
1	0xbe00c421	-0.12574817
2	0x3e1044c7	0.14088736
3	0xbe82912e	-0.25501388
4	0xbe82458d	-0.25443688
5	0xbe8240a1	-0.25439933
6	0xbe831f96	-0.25610036
7	0x3e9bb6b6	0.30412835
8	0x3e58bcd7	0.21165787
9	0xbe82a29d	-0.2551469
10	0x3e2f1dc8	0.17101204
11	0xbe51fbfd	-0.20506282
12	0xbe6b92ce	-0.2300522
13	0x3f404ad9	0.7511421
14	0x3ecbd407	0.39810202
15	0x3eaec8e5	0.34137645
16	0x3e1d106e	0.15338299
17	0x3e74c868	0.23904574
18	0x3f2ca75e	0.6744288
19	0x3f0a317e	0.5398177
20	0xbe6e037b	-0.23243515
21	0xbe008e6c	-0.1255433
22	0xbc9e2730	-0.019305795
23	0xbc94f653	-0.018183863
24	0xbcb85fef	-0.022506682
25	0x3ebabd45	0.36472526
26	0xbc837fda	-0.016052175
27	0xbca100f5	-0.019653777
28	0x3e143256	0.14472327
29	0xbd3def00	-0.046370506
30	0xbe11a276	-0.1422213
31	0xbd8a2d08	-0.0674687
32	0xbc93083a	-0.017948259
33	0xbd87543e	-0.06607865
34	0xbe3592b5	-0.17731746
35	0xbe945aa9	-0.28975418
36	0xbe82b9f4	-0.25532496
37	0xbe88c47f	-0.26712415
38	0xbd0ce4cc	-0.034397885
39	0x3f18ff8d	0.5976494
40	0xbe5aa005	-0.21350105
41	0x3e28e89c	0.16494983
42	0x3e1e857b	0.15480606
43	0x3edb6c29	0.42855957
44	0xbdbf854a	-0.09351595
45	0xbe8d924e	-0.27650684
46	0x3e270798	0.1631149
47	0xbe330446	-0.17482099
48	0x3e8f5545	0.27994743
49	0xbdcd2155	-0.10016123
50	0xbe823db6	-0.25437707
51	0x3e52453d	0.20534225
52	0xbe01ce76	-0.12676415
53	0xbe23ff54	-0.16015369
54	0xbe4b1f8b	-0.19836251
55	0x3ea250a5	0.31702152
56	0x3c4b2411	0.012398736
57	0xbe5beb8d	-0.21476574
58	0x3e3b707b	0.18304627
59	0x3e85846a	0.26077586
60	0x3dd27a97	0.102772884
61	0xbe2cfdd2	-0.168937
62	0x3e9fa102	0.31177527
63	0xbe656f02	-0.22405627
64	0x3defa1b4	0.11700764
65	0xbe55b58b	-0.20870034
66	0xbe55603b	-0.2083749
67	0xbe589ff4	-0.21154767
68	0x3c66f4c0	0.014096439
69	0xbda5b596	-0.080912754
70	0xbe18af71	-0.14910676
71	0xbe38f565	-0.1806236
72	0x3e56aa0f	0.2096331
73	0x3e4e8e42	0.20171455
74	0xbdb8a8dc	-0.09016582
75	0xbe516503	-0.20448689
76	0xbdc1133a	-0.09427495
77	0x3e5ab55d	0.21358247
78	0xbc1a1e00	-0.009406567
79	0xbd8f7578	-0.07004827
80	0xbdc8c910	-0.09803975
81	0x3c9b0070	0.018921107
82	0x3e6c421d	0.23072095
83	0x3e4fe9d2	0.20304039
84	0xbd7882bc	-0.060671553
85	0xbdda7479	-0.10666747
86	0xbea90d87	-0.33018133
87	0x3def157b	0.11674019
88	0x3bfe0817	0.007752429
89	0xbea5e919	-0.32404402
90	0xbea3197e	-0.31855386
91	0xbea6799b	-0.32514653
92	0x3e6c010b	0.23047273
93	0x3b7aa169	0.003824318
94	0x3e82c442	0.25540358
95	0x3b92913c	0.0044728797
96	0x3f166032	0.5874053
97	0x3f932fed	1.1499001
98	0x3f0e1108	0.5549474
99	0xbea5270c	-0.32256353
100	0xbea3cb31	-0.3199096
101	0xbdb09e2c	-0.08623919
102	0xbe4ff393	-0.2030776
103	0x3dd9187b	0.106003724
104	0xbe1b6945	-0.15176876
105	0xbe7d0eb0	-0.24712634
106	0xbe00ef4f	-0.12591289
107	0x3d73471e	0.059393995
108	0xbe89dbf2	-0.26925617
109	0xbda140bb	-0.078736745
110	0x3dc0d244	0.09415105
111	0xbe5430f4	-0.20721799
112	0xbe799fce	-0.24377367
113	0x3e51a39b	0.20472567
114	0xbe7cc241	-0.24683477
115	0xbe85010e	-0.25977367
116	0xbe6d3fbc	-0.23168844
117	0x3fc2b5be	1.5211713
118	0x3efe81e5	0.49708477
119	0xbde09d3a	-0.109674886
120	0xbdb6e48f	-0.08930313
121	0x3de67c7d	0.11254213
122	0xbe62a3fa	-0.22132865
123	0x3e74d454	0.23909122
124	0x3f66fc6e	0.9022893
125	0xbe213fed	-0.15747042
126	0xbdb631bc	-0.08896205
127	0x3e8bee5f	0.273303
128	0xbde7ea61	-0.11324001
129	0xbded1fbb	-0.11578318
130	0xbe2bd122	-0.16778997
131	0x3f40c7b4	0.7530472
132	0x3f10f74c	0.56627345
133	0xbe7563c8	-0.23963845
134	0xbde3aa5b	-0.11116477
135	0xbda91458	-0.082558334
136	0x3e1fea0e	0.15616629
137	0x3e3b07ad	0.18264647
138	0xbe500756	-0.20315298
139	0xbe4f6ece	-0.20257112
140	0xbe413213	-0.18866758
141	0xbe597cc1	-0.21238996
142	0xbe17a985	-0.1481076
143	0xbe3f8184	-0.1870175
144	0xbe7556d0	-0.23958898
145	0xbe3183d0	-0.17335439
146	0x3f404ea0	0.7511997
147	0x3f521a70	0.8207159
148	0xbe519cd5	-0.20469983
149	0xbd95f1d7	-0.07321518
150	0x3eff344a	0.4984458
151	0xbe5cbc00	-0.21556091
152	0x3e4cac89	0.19987692
153	0xbe3e6ed2	-0.18596962
154	0xbdd6d199	-0.10489196
155	0xbe24c630	-0.16091228
156	0x3f39dda8	0.72603846
157	0xbdd25a18	-0.1027109
158	0xbdd60942	-0.104509845
159	0xbdd4b456	-0.10385959
160	0x3e250738	0.16116035
161	0xbe374752	-0.178983
162	0x3d56f4f6	0.052479707
163	0xbdcf85b0	-0.10132921
164	0x3ead46f0	0.33843184
165	0xbdd383c8	-0.1032787
166	0xbde6cefe	-0.112699494
167	0xbdb6ef50	-0.08932364
168	0xbe0f649c	-0.14003223
169	0x3f2a8742	0.6661264
170	0x3ece9972	0.40351444
171	0x3de0802d	0.109619476
172	0x3ed610fa	0.41809827
173	0x3cc19a84	0.02363325
174	0x3e123908	0.14279568
175	0x3e6e3a55	0.2326444
176	0x3d13b609	0.036062274
177	0xbea6e346	-0.3259527
178	0xbe8f0cd0	-0.27939463
179	0x3e94da1e	0.2907266
180	0xbe97c92d	-0.29645672
181	0x3e3e37ed	0.18576021
182	0xbe9c2a53	-0.3050104
183	0x3f0db596	0.55355203
184	0xbea2ba56	-0.31782788
185	0xbe9f524d	-0.31117478
186	0x3f090766	0.53526914
187	0x3db819ac	0.089892715
188	0x3d589470	0.052875936
189	0xbe40dbb2	-0.18833807
190	0x3d361a48	0.044458658
191	0xbbe683e0	-0.0070347637
192	0x3def57e0	0.11686683
193	0xbd913782	-0.070906654
194	0xbdd28672	-0.1027955
195	0x3d647f88	0.055785686
196	0xbda5813e	-0.080812916
197	0x3d4e8458	0.05041918
198	0xbe33b74c	-0.17550391
199	0x3cd93db0	0.026518673
200	0xbdf9ca62	-0.121968046
201	0x3db1d530	0.086832404
202	0x3cad4ac0	0.021153808
203	0xbd9133c8	-0.070899546

runeC.bias f4 [12]
0	0x3e327279	0.1742648
1	0xbc4acf9c	-0.0123785995
2	0x3c0ca865	0.00858507
3	0x3de6ca9d	0.11269114
4	0xbe716961	-0.23575355
5	0x3e87d53b	0.2652987
6	0x3d5d8021	0.05407727
7	0x3d815af1	0.06316174
8	0x3de21efb	0.11041065
9	0x3d881507	0.06644636
10	0x3e7e051a	0.24806634
11	0xbe472440	-0.19447422

spellsC.weight f4 [12, 10]
0	0x3e4e4896	0.20144877
1	0x3e68a244	0.2271815
2	0xbeeaca01	-0.45857242
3	0xbd8b688a	-0.068070486
4	0x3df3375d	0.11875794
5	0xbe06ad71	-0.131521
6	0xbe4d0f3c	-0.20025343
7	0x3f031f33	0.5121948
8	0xbe70b281	-0.23505594
9	0xbe42ce2e	-0.19023964
10	0xbed1dbb2	-0.40987927
11	0x3efc3b17	0.49263832
12	0x3e7cacfb	0.24675362
13	0xbc6c8940	-0.01443702
14	0x3f01d27e	0.5071181
15	0x3ebb253f	0.36551854
16	0x3e66ed40	0.22551441
17	0xbea9d109	-0.33167294
18	0xbeaa24a6	-0.33231086
19	0xbec73e44	-0.38914692
20	0xbe219517	-0.1577953
21	0xbeb43d5f	-0.35203072
22	0x3ee4a525	0.44657245
23	0x3e1dd1ce	0.15412065
24	0x3d40271c	0.046912298
25	0xbe885045	-0.2662374
26	0x3f537157	0.8259482
27	0xbd7df530	-0.062001407
28	0x3f290b71	0.66033083
29	0x3e2bc8cb	0.16775815
30	0x3e6c0abf	0.23050974
31	0x3f198816	0.59973276
32	0x3ebc46da	0.36772805
33	0x3e75607e	0.2396259
34	0xbe5daf5b	-0.21648924
35	0x3f020823	0.50793666
36	0x3ea1dfd3	0.31616077
37	0xbebc829b	-0.36818394
38	0xbf08d38a	-0.53447783
39	0xbe839afb	-0.25704178
40	0x3ea65223	0.3248454
41	0xbf0f5366	-0.5598663
42	0x3de03ede	0.10949491
43	0x3e926c99	0.28598478
44	0x3d072b67	0.033000376
45	0x3df9494c	0.121721834
46	0x3ddbf302	0.107397094
47	0xbf0ceaa7	-0.5504555
48	0xbe793bdd	-0.24339242
49	0x3e94c2a9	0.29054764
50	0xbe87d4c6	-0.2652952
51	0x3f1f2d26	0.62178266
52	0xbcec9719	-0.028880643
53	0x3dd02d60	0.101649046
54	0x3d4867ac	0.048926994
55	0xbe843858	-0.25824237
56	0xbe89d28e	-0.26918453
57	0x3ef30ef2	0.4747234
58	0xbe04f37a	-0.12983504
59	0x3f4beef2	0.79661477
60	0x3ef2d41d	0.47427455
61	0xbe859698	-0.26091456
62	0xbdef5bd7	-0.11687439
63	0xbe4f38f2	-0.20236567
64	0xbdc99c5d	-0.09844277
65	0x3e20ff65	0.15722425
66	0x3efbb334	0.4916016
67	0xbea69a24	-0.32539475
68	0x3f3e600d	0.7436531
69	0xbf0f13b8	-0.55889463
70	0x3ead2cd7	0.33823273
71	0xbeac1562	-0.33610064
72	0x3ee6432f	0.44973132
73	0x3e4ad1ba	0.19806567
74	0x3cae7094	0.021293916
75	0xbe83c72b	-0.2573789
76	0xbd0e8780	-0.03479719
77	0x3ed1d521	0.40982917
78	0xbe73f093	-0.2382224
79	0xbe8522d5	-0.26003137
80	0xbee8d430	-0.45474386
81	0xbe06fff6	-0.13183579
82	0xbd9c7605	-0.07639698
83	0x3e9c51f9	0.3053129
84	0xbe3f5417	-0.18684421
85	0x3eea10eb	0.45716032
86	0x3e2242be	0.15845773
87	0xbef2cbd3	-0.4742113
88	0x3e416136	0.1888474
89	0x3f670b21	0.90251356
90	0xbebbf63d	-0.36711302
91	0x3dc19b57	0.09453457
92	0x3d24f232	0.040270038
93	0xbe887d27	-0.26657984
94	0x3f143501	0.5789338
95	0x3d9dd0a9	0.077058144
96	0xbebacf83	-0.36486444
97	0x3f3284fe	0.6973418
98	0x3f015768	0.50523996
99	0xbecd1b62	-0.40059954
100	0xbeceaee6	-0.40367812
101	0xbe99af16	-0.30016392
102	0x3f35dc0c	0.7103889
103	0x3c5da2c0	0.013527572
104	0x3e4bdea3	0.19909148
105	0xbe1bd27c	-0.15217012
106	0xbea28c40	-0.31747627
107	0xbe0dd29c	-0.13849872
108	0x3f180c91	0.59394175
109	0x3e5124e9	0.20424236
110	0xbeae818b	-0.34083208
111	0xbe9846db	-0.29741558
112	0xbf170825	-0.589968
113	0xbe998fb0	-0.29992437
114	0x3eb8b588	0.36075997
115	0x3e15a023	0.14611869
116	0x3c1c5942	0.009542765
117	0xbe97f9f7	-0.29682896
118	0x3e9230a8	0.28552747
119	0x3f23d7a4	0.64000916

spellsC.bias f4 [12]
0	0xbd08bd68	-0.033383757
1	0xbe65aa02	-0.22428134
2	0x3e1a85e1	0.15090133
3	0xbd35845a	-0.044315673
4	0x3dc3e112	0.09564413
5	0x3e30798b	0.17233865
6	0x3ba02f8f	0.004888482
7	0x3e2ffe00	0.17186737
8	0xbc891b19	-0.016736554
9	0xbe7de30c	-0.24793643
10	0x3d0f8546	0.03503921
11	0xbdbb039a	-0.09131546

c.weight f4 [90, 89]
0	0xbd8645ec	-0.06556305
1	0xbf3d4cfb	-0.7394559
2	0xbe2e0e08	-0.1699754
3	0x3e71745b	0.23579542
4	0xbd936a17	-0.071979694
5	0xbed93ed5	-0.4243075
6	0xbd27d425	-0.0409738
7	0xbebcd8e3	-0.3688422
8	0xbed48b41	-0.41512492
9	0x3e2920c4	0.16516405
10	0x3d9189b4	0.07106343
11	0xbe090794	-0.13381797
12	0xbf0739c8	-0.5282254
13	0xbe786695	-0.24257882
14	0x3c62a751	0.013833837
15	0x3d6514d3	0.055928063
16	0x3e23dd51	0.16002394
17	0xbecabcc4	-0.39597142
18	0xbe2bf23b	-0.16791622
19	0xbe81027b	-0.25197205
20	0x3e2d112a	0.16901079
21	0x3e39c19e	0.18140265
22	0x3d70af73	0.05876107
23	0xbebeacb3	-0.37241134
24	0x3f1f6637	0.6226534
25	0xbe93624e	-0.28785938
26	0x3e057078	0.13031185
27	0x3ebdc97c	0.37067783
28	0xbd3f7167	-0.04673901
29	0xbd77d347	-0.060504224
30	0x3e49d884	0.197115
31	0xbd09eae3	-0.03367127
32	0x3e64c0c7	0.22339164
33	0xbe781ff5	-0.2423094
34	0x3d835eba	0.06414552
35	0x3d21db0b	0.039515536
36	0x3d7bc17b	0.061463814
37	0xbe88a94f	-0.26691672
38	0x3aa06cd4	0.0012239465
39	0xbe96640a	-0.293732
40	0xbcc47878	-0.023983225
41	0xbee31a97	-0.44356224
42	0xbdbf28f9	-0.09333987
43	0xbf1e3ed0	-0.61814594
44	0x3eaf8ac3	0.34285554
45	0x3b8454f5	0.004038448
46	0xbd68cc06	-0.056835197
47	0x3e05fd80	0.13084984
48	0xbe8005e3	-0.2500449
49	0x3df036cc	0.11729202
50	0x3a120218	0.000556977
51	0x3d597bc6	0.053096555
52	0x3dedfb1e	0.116201624
53	0x3dbc1167	0.09183007
54	0x3de4f4cf	0.11179506
55	0x3cc3250c	0.023821376
56	0xbe4dba38	-0.20090568
57	0x3e27428e	0.16333982
58	0xbd32013a	-0.0434582
59	0xbe039e7b	-0.12853424
60	0x3d495de7	0.049161818
61	0x3da131c6	0.07870822
62	0xbe35d0ca	-0.17755428
63	0x3e2d8613	0.16945677
64	0x3e68d64d	0.22738
65	0xbef462fd	-0.47731772
66	0xbea4bcd3	-0.3217531
67	0x3bb16468	0.0054135807
68	0x3dbc957a	0.09208198
69	0xbd008933	-0.031380843
70	0xbe8fccb4	-0.28085864
71	0xbeb80c29	-0.35946777
72	0x3e0d13e9	0.13777126
73	0x3e484142	0.19556144
74	0x3e8e9c3b	0.2785357
75	0x3f297011	0.66186625
76	0xbc86c698	-0.016452119
77	0x3d8526b6	0.06501524
78	0x3e5454a7	0.20735417
79	0x3e894a2a	0.26814395
80	0xbe6f70c0	-0.23382854
81	0xbe0de1b9	-0.13855638
82	0xbe619493	-0.22029333
83	0x3d25a9a3	0.04044498
84	0x3d28eaf0	0.04123968
85	0xbf3d6c82	-0.73993695
86	0x3f1633e6	0.5867294
87	0x3eba3b95	0.36373582
88	0xbe10b0cc	-0.14129943
89	0xbdc2fd04	-0.09520915
90	0x3cfac521	0.030611577
91	0xbd502800	-0.050819397
92	0xbe10c98b	-0.14139383
93	0xbddadee2	-0.10687043
94	0x3d603a91	0.054743353
95	0x3d140ea7	0.036146786
96	0xbe20aab2	-0.15690115
97	0xbd4ced04	-0.050030723
98	0xbc83cae8	-0.016087964
99	0x3c2034c5	0.009778206
100	0xbd631d2f	-0.055447754
101	0xbcb5d73e	-0.022197362
102	0x3ddb47ac	0.1070703
103	0xbd4d5436	-0.050129138
104	0xbd126544	-0.035741106
105	0xbd9477f2	-0.0724944
106	0xbd728564	-0.059209242
107	0x3d1584a3	0.036503445
108	0xbcf50d7c	-0.029913656
109	0xbc77b503	-0.01511884
110	0xbde63aed	-0.11241708
111	0x3dda00bb	0.106446706
112	0xbdd1e87a	-0.102494195
113	0xbbda018b	-0.006653016
114	0x3d7fc58e	0.062444262
115	0x3d8237a4	0.06358269
116	0x3d0a314a	0.033738412
117	0xbd601152	-0.054704018
118	0xbd229964	-0.039697066
119	0xbd8333ba	-0.064063504
120	0xbe112fc9	-0.14178385
121	0xbd8d6f83	-0.06906035
122	0xbc1d1360	-0.009587139
123	0xbcb9ae5e	-0.022666153
124	0xbdab9c59	-0.0837943
125	0xbe2636e2	-0.16231874
126	0x3c298fd6	0.010349235
127	0x3d5aa961	0.05338419
128	0xbad5268b	-0.0016262097
129	0x3cc4c8d4	0.024021544
130	0xbd4e1a90	-0.0503183
131	0xbd8bf5d0	-0.068339944
132	0xbcbf0716	-0.023318809
133	0xbe140f59	-0.1445898
134	0x3d40189e	0.046898477
135	0x3dac845c	0.08423683
136	0xbd9f2f53	-0.07772698
137	0xbd15f67d	-0.036612023
138	0x3cebc4fd	0.028780455
139	0xbcb24c18	-0.0217648
140	0x3d414470	0.047184408
141	0xbd2a6f93	-0.04161031
142	0x3d69573e	0.056967966
143	0xbdc1d75b	-0.09464904
144	0xbe33e777	-0.17568766
145	0xbe00c273	-0.12574176
146	0xbc1152f3	-0.008869874
147	0x3dac14c5	0.08402399
148	0x3c2870e2	0.01028082
149	0xbd36f560	-0.0446676
150	0xbdfbcf3f	-0.122953884
151	0x3d24f2d6	0.04027065
152	0xbde988fa	-0.11403079
153	0x3dd0e82a	0.10200532
154	0xbaaefa55	-0.0013349751
155	0x3d53238a	0.051547565
156	0xbcc3b4d3	-0.023889935
157	0xbd5b8229	-0.053590927
158	0xbd53245b	-0.051548343
159	0xbc23f399	-0.010006809
160	0xbe21eff1	-0.15814187
161	0x3d537f58	0.051635116
162	0xbb510d5e	-0.0031898837
163	0xbe0f466f	-0.13991712
164	0x3d8caee9	0.06869299
165	0x3d17abb2	0.037028976
166	0xbdcae413	-0.09906783
167	0xbd9f2821	-0.07771326
168	0x3c5292b8	0.012852363
169	0xbdcf1111	-0.10110677
170	0xbdc135c4	-0.09434083
171	0x3b2c5a94	0.0026299106
172	0x3d9f10d8	0.077668846
173	0x3daf82b9	0.08569855
174	0x3ce82fa6	0.028343033
175	0xbdb001f2	-0.08594121
176	0xbdee5c17	-0.116386585
177	0x3d088a29	0.033334885
178	0x3cd50df5	0.026007632
179	0xbe97175a	-0.29510003
180	0xbd9047a8	-0.07044917
181	0xbe14ddd1	-0.14537741
182	0xbdf98609	-0.12183768
183	0xbe9d2d91	-0.30698827
184	0xbd2a1d5b	-0.0415319
185	0x3d50e8cf	0.051003274
186	0x3e5fa044	0.2183848
187	0xbe38d03b	-0.18048184
188	0x3d3f4b73	0.046702813
189	0xbe826bdd	-0.25472918
190	0xbe532f36	-0.20623478
191	0xbe8c59a7	-0.2741215
192	0x3d9054c3	0.07047417
193	0x3d606625	0.054784913
194	0x3e076a06	0.13224038
195	0xbe903639	-0.2816637
196	0x3d6122f6	0.054964982
197	0xbe156f57	-0.14593254
198	0x3eae98c2	0.3410092
199	0xbda07bd3	-0.078361176
200	0x3efbcd69	0.49180153
201	0xbdefa35b	-0.117010795
202	0x3dc2523d	0.09488342
203	0x3d73172b	0.059348267
204	0xbe8fa152	-0.28052765
205	0xbe0a020f	-0.13477348
206	0x3f1c26bb	0.609966
207	0x3db0e3ce	0.086372
208	0x3e455983	0.19272427
209	0xbd0923d3	-0.03348143
210	0x3e0750d0	0.13214421
211	0xbe46c105	-0.19409569
212	0xbe7a9223	-0.24469809
213	0x3d182903	0.037148487
214	0xbe70dda7	-0.23522054
215	0xbe31cbfc	-0.1736297
216	0x3ed0adca	0.4075759
217	0x3d62c251	0.055361096
218	0x3cbaa428	0.022783354
219	0x3dbd3501	0.09238625
220	0x3c7a0a22	0.015261205
221	0xbdb5002a	-0.08837922
222	0xbce61413	-0.028085744
223	0x3d8fbed7	0.07018822
224	0x3db3755c	0.08762619
225	0x3d55b075	0.052170236
226	0xbe612296	-0.2198585
227	0xbc3dd24b	-0.011585782
228	0xbed5725f	-0.4168882
229	0xbe50827f	-0.2036228
230	0xbeeea325	-0.46608844
231	0x3c3d546d	0.011555773
232	0xbe08e0cc	-0.13367003
233	0xbead64c5	-0.33865944
234	0xbe92ffe9	-0.2871087
235	0xbd1495ab	-0.036275547
236	0xbdac0b33	-0.084005736
237	0xbe394992	-0.18094471
238	0xbec81be7	-0.39083788
239	0xbdff5146	-0.124666736
240	0xbe809a9d	-0.2511796
241	0xbc828984	-0.015934713
242	0x3ec5ea07	0.3865511
243	0xbe6e677b	-0.23281662
244	0xbf073cf0	-0.5282736
245	0x3e693b44	0.22776514
246	0x3d41fe71	0.047361795
247	0xbdb4c09a	-0.08825798
248	0xbdde3c34	-0.108513266
249	0xbeff8be0	-0.49911404
250	0xbec1fa05	-0.37886062
251	0xbc84d4c5	-0.016214738
252	0xbe8f8633	-0.28032073
253	0x3d128fd2	0.03578169
254	0x3d82044b	0.06348475
255	0x3d0d8015	0.034545977

c.bias f4 [90]
0	0x3d1db8ee	0.03850644
1	0xbdce0a8a	-0.10060604
2	0x3d80825f	0.06274866
3	0xbe023c37	-0.12718283
4	0xbd916c1c	-0.07100698
5	0xbb13da4e	-0.002256054
6	0x3d693e9d	0.05694448
7	0xb9392726	-0.00017657559
8	0xbde3579b	-0.11100694
9	0x3c89707c	0.01677727
10	0xbc6e4a59	-0.014544093
11	0xbd12e99c	-0.03586732
12	0xbc0c93e5	-0.008580183
13	0xbe0916ee	-0.13387653
14	0xbda6b8ac	-0.08140692
15	0x3d808bf5	0.06276695
16	0x3dd9c351	0.10632957
17	0xbe377d75	-0.17918952
18	0xbd260e95	-0.04054125
19	0x3bcd7235	0.006269718
20	0xbdfeb26e	-0.124363765
21	0xbdfabd77	-0.12243169
22	0x3dc70993	0.09718623
23	0x3d59864b	0.053106587
24	0x3dadfff0	0.08496082
25	0x3c6501dd	0.013977495
26	0xbdd08e66	-0.1018341
27	0xbdc2a6ab	-0.09504446
28	0x3d06fcfd	0.032956112
29	0x3cf209e8	0.02954574
30	0xbdaa8cff	-0.08327674
31	0xbe3c2954	-0.1837514
32	0x3c4b4069	0.012405493
33	0xbcf55903	-0.02994967
34	0x3d7b1561	0.061299685
35	0xbda0393e	-0.07823418
36	0xbc1a54a9	-0.009419599
37	0xbd24a21b	-0.04019366
38	0x39429372	0.0001855621
39	0x3daf3c2a	0.08556397
40	0x3dd90926	0.10597448
41	0x3d8ad451	0.067787774
42	0xbd61fe94	-0.055174425
43	0xbda387a4	-0.07984856
44	0xbdaa4ce9	-0.08315451
45	0xbdb40016	-0.08789079
46	0xbdf43f50	-0.119261384
47	0x3d9c1340	0.07620859
48	0xbe2265fa	-0.15859213
49	0x3da5f1f8	0.081027925
50	0x3dc4dbd6	0.09612243
51	0xbd686c7b	-0.05674408
52	0xbdee61c5	-0.11639742
53	0xbdf049dc	-0.117328376
54	0x3db6daf1	0.089284785
55	0xbb8ed082	-0.004358352
56	0x3d6c20c7	0.057648446
57	0x3c8aace4	0.016928144
58	0xbd021d5a	-0.031766273
59	0x3bf12cb2	0.0073600644
60	0xbe01dc23	-0.12681632
61	0x3d61bb59	0.05511031
62	0xbe125584	-0.14290434
63	0x3da40d10	0.08010304
64	0xbcb6b17d	-0.02230143
65	0x3ca7abc5	0.020467648
66	0x3cce73ee	0.025201764
67	0x3d8c85ac	0.068614334
68	0x3d8a9d91	0.06768335
69	0xbde909a5	-0.11378793
70	0x3d75008e	0.059814982
71	0x3da58780	0.08082485
72	0x3d47450d	0.048649836
73	0x3d23892a	0.03992573
74	0xbc1efccb	-0.009703825
75	0xbc28e716	-0.010309001
76	0xbdb29aa1	-0.087208994
77	0x3cca169d	0.024668986
78	0x3e2cb5f6	0.16866288
79	0xbd4d99c7	-0.05019548
80	0xbd9fae0e	-0.0779687
81	0x3d85e4b4	0.06537762
82	0xbd84c8de	-0.06483625
83	0xbd9d67a2	-0.07685782
84	0xbdcc7269	-0.099827595
85	0x3d51ac24	0.051189557
86	0x3d4e9d8f	0.05044323
87	0x3d55115f	0.05201852
88	0xbe2cf1f3	-0.16889171
89	0x3d966fe8	0.07345563

fc2.weight f4 [400, 450]
0	0x3e086811	0.13320948
1	0xbcb68c71	-0.022283765
2	0x3db1e9e2	0.08687188
3	0x3e09ca3d	0.13456054
4	0x3d22ed37	0.039777007
5	0x3dd176de	0.1022775
6	0x3e9b9bc2	0.3039227
7	0xbd987024	-0.07443264
8	0x3e0f7a46	0.14011487
9	0x3d8c0849	0.06837518
10	0xbe990f0c	-0.29894292
11	0xbe2d3332	-0.1691406
12	0xbbe1efc4	-0.0068950374
13	0xbc6a3fed	-0.014297468
14	0xbcae5c1e	-0.02128416
15	0xba85f725	-0.001022075
16	0x3dead916	0.11467187
17	0x3df53272	0.11972512
18	0xbdd217a4	-0.10258415
19	0xbdc1fe2e	-0.09472309
20	0x3d1708a3	0.03687347
21	0x3e6ee00e	0.23327658
22	0x3d2f8bbe	0.042857878
23	0xbeac3262	-0.3363219
24	0xbc6bf460	-0.014401525
25	0x3d02005a	0.031738617
26	0x3d9e8aac	0.07741293
27	0x3cc5fe9c	0.024169259
28	0xbe3780a3	-0.17920165
29	0xbeca426b	-0.39503798
30	0x3d9b266f	0.0757569
31	0x3e00c319	0.12574424
32	0x3d2c374d	0.042044926
33	0xbe4d98e9	-0.20077862
34	0x3da250bc	0.07925555
35	0x3c51e24d	0.012810302
36	0x3cd799bc	0.026318423
37	0x3e8611e4	0.26185524
38	0xbd6ace2d	-0.05732553
39	0x3d775838	0.060386866
40	0x3c7a10ff	0.015262841
41	0xbdeb0b83	-0.11476805
42	0xbee5d0f0	-0.4488597
43	0xbe1e8850	-0.15481687
44	0x3e7aee29	0.24504913
45	0x3dd32ff4	0.10311881
46	0xbd31c7a3	-0.04340328
47	0xbe90e6d3	-0.28301105
48	0xbc904b92	-0.01761416
49	0xbe16a2bd	-0.14710517
50	0x3de050df	0.10952925
51	0xbb9db2e5	-0.0048125857
52	0xbf1345bf	-0.575283
53	0x3c7f47dd	0.015581098
54	0xbdfa978f	-0.12235939
55	0x3def4d26	0.11684637
56	0xbd981278	-0.07425398
57	0xbe8fa43b	-0.28054985
58	0xbe8ec300	-0.27883148
59	0x3dfb80c5	0.1228042
60	0xbd350a33	-0.04419918
61	0x3dd122dc	0.10211727
62	0x3d1ed917	0.03878125
63	0x3e8f43d5	0.2798144
64	0xbd830600	-0.06397629
65	0xbd9df126	-0.07712011
66	0x3d695192	0.056962557
67	0xbd62e245	-0.05539157
68	0x3cd143ae	0.025544968
69	0x3e703f98	0.23461759
70	0xbe0a91af	-0.13532136
71	0xbe08bd5d	-0.13353486
72	0xbc7c99c7	-0.015417523
73	0xbd9b5acf	-0.0758568
74	0xbdef0b5d	-0.11672089
75	0xbca654e8	-0.020304158
76	0x3cdfe3d9	0.027330326
77	0x3e3a4e44	0.18193918
78	0x3d41113b	0.047135573
79	0xbdae9757	-0.085249595
80	0xbc7b6fa4	-0.015346441
81	0xbd144f4c	-0.036208436
82	0x3e533791	0.20626666
83	0xbb92e6be	-0.004483073
84	0x3dc41c57	0.09575718
85	0x3d316974	0.04331346
86	0xbdd4c5dc	-0.10389301
87	0x3e112abe	0.14176461
88	0x3df4e4ee	0.119577274
89	0x3e2a3259	0.16620769
90	0xbdc07f0e	-0.09399234
91	0xbcdd33c0	-0.027002215
92	0x3cdc3450	0.026880413
93	0xbe5b52ea	-0.21418348
94	0xbbc89001	-0.006120682
95	0xbe2228eb	-0.15835921
96	0xbd4f63fd	-0.050632466
97	0xbe11e841	-0.14248754
98	0xbe59a1f1	-0.21253182
99	0xbe7f9f54	-0.24963123
100	0x3da08231	0.07837332
101	0xbcf930f4	-0.03041885
102	0x3c499bc7	0.012305207
103	0xbca802f2	-0.020509217
104	0xbd8eb32a	-0.069677666
105	0x3e37e4ec	0.1795842
106	0xbda42e0a	-0.08016594
107	0xbd9acbf7	-0.075584345
108	0x3e97ad72	0.29624516
109	0xbd8e410c	-0.069460005
110	0xbb5d0cf7	-0.0033729651
111	0x3cca5957	0.024700804
112	0x3dbe5970	0.092944026
113	0x3e403f59	0.18774165
114	0x3c091554	0.008366901
115	0xbe1fe9a5	-0.15616472
116	0xbdc44355	-0.09583155
117	0xbc2d8bc5	-0.010592406
118	0xbeb1eb43	-0.34749803
119	0x3d8f3e4d	0.06994305
120	0x3cbeb88e	0.023281362
121	0xbe15b788	-0.14620793
122	0xbdd922e6	-0.106023595
123	0x3de3bfb8	0.11120552
124	0xbd0a0a9d	-0.033701528
125	0x3c4b489a	0.012407446
126	0xbe5186a0	-0.20461512
127	0x3dc4b488	0.09604746
128	0xbc1f5027	-0.0097237
129	0x3d261560	0.04054773
130	0xbd85de94	-0.06536594
131	0xbd9d4257	-0.07678669
132	0x3e30bc77	0.17259394
133	0xbce96d91	-0.028494628
134	0xbceea16a	-0.029129703
135	0x3d419191	0.047257964
136	0xba0739c0	-0.0005158447
137	0x3e19c9e1	0.15018417
138	0xbda1715c	-0.0788295
139	0x3e00ab9e	0.12565467
140	0x3d1b8697	0.03797015
141	0xbbb23225	-0.0054381066
142	0x3ec1a273	0.3781925
143	0xbcae5083	-0.021278625
144	0x3e247d90	0.16063523
145	0xbd69abc0	-0.05704856
146	0xbe2dbbe0	-0.169662
147	0xbe499776	-0.19686684
148	0x3bbe72ba	0.0058120163
149	0xbedaaca8	-0.4270985
150	0xbc972945	-0.018452296
151	0xbea42aad	-0.3206381
152	0x3d23542f	0.039875206
153	0xba38c7e8	-0.00070488313
154	0xbe148732	-0.14504698
155	0x3e2b44bc	0.16725439
156	0x3d6cae99	0.057783697
157	0xbe25cb4b	-0.16190831
158	0x3da18080	0.078858376
159	0xbb54c8d6	-0.003246834
160	0x3e318d45	0.17339046
161	0x3bda91ec	0.0066702273
162	0x3e017c6e	0.12645122
163	0xbd60fc8e	-0.054928355
164	0x3e000c6d	0.1250474
165	0x3cb1ca5d	0.02170294
166	0x3dfa2556	0.122141525
167	0xbd361d67	-0.044461634
168	0xbe149427	-0.1450964
169	0x3d090403	0.03345109
170	0x3d247592	0.040151186
171	0xbed5db6b	-0.41768965
172	0xbc03bc48	-0.008040495
173	0x3b909ec2	0.0044134567
174	0x3cbce332	0.023057554
175	0x3d80b5ae	0.06284653
176	0xbe086f61	-0.13323738
177	0xbcb33fc9	-0.021881001
178	0xbde858ed	-0.11345086
179	0xbe7d7e05	-0.24755104
180	0xbd102ccc	-0.03519897
181	0x3d72c23b	0.059267264
182	0xbd4adae5	-0.04952516
183	0xbdabd6b1	-0.083905585
184	0x3cf4945b	0.029855898
185	0xbe08295e	-0.1329703
186	0xbda88e63	-0.08230283
187	0xbdf8df62	-0.12151982
188	0xbdf2829d	-0.11841319
189	0xbe8b0435	-0.27151647
190	0x3dd24754	0.10267511
191	0x3c5588a3	0.013033065
192	0x3cd3e863	0.025867647
193	0x3c068d2c	0.008212369
194	0x3c7152e4	0.014729235
195	0x3cad0818	0.021122023
196	0xbdc774ad	-0.09739051
197	0xbe1ac840	-0.15115452
198	0x3dd6988b	0.10478314
199	0x3e133d72	0.14378908
200	0xbd17db0a	-0.037074126
201	0xbb570671	-0.0032810236
202	0xbd3e3780	-0.046439648
203	0x3e36dbe3	0.17857318
204	0xbd96febd	-0.07372806
205	0xbdc441af	-0.09582841
206	0xbc4ab546	-0.0123723205
207	0xbd111b48	-0.035426408
208	0xbdc0e7f5	-0.09419242
209	0x3dd0af7c	0.10189721
210	0x3dcc80a6	0.09985475
211	0xbd10c52c	-0.035344288
212	0x3bc37e3f	0.0059659774
213	0xbc44f4ca	-0.012021253
214	0xbcbe776f	-0.02325031
215	0xbce525fb	-0.027972212
216	0xbe055444	-0.13020426
217	0x3d9fbbe9	0.07799513
218	0x3d8983b2	0.06714572
219	0xbd9517d2	-0.07279934
220	0xbdb3a2b7	-0.0877127
221	0xbe30f7fd	-0.172821
222	0x3cbb4231	0.022858711
223	0x3dd5d57b	0.10441109
224	0x3d079de4	0.03310956
225	0xbcae2568	-0.021258071
226	0x3d0368d7	0.032082405
227	0x3e3521c1	0.17688657
228	0x3da6d69f	0.081464045
229	0x3da0d764	0.078535825
230	0x3d61f83e	0.055168383
231	0xbbeca83a	-0.0072222026
232	0x3e0da095	0.13830788
233	0xbdf3d9c9	-0.119067736
234	0xbd8213fc	-0.06351468
235	0x3d25ace9	0.040448103
236	0xbe474147	-0.19458495
237	0xbc4665bb	-0.012109215
238	0x3e194f2a	0.14971605
239	0xbe205985	-0.15659149
240	0xbd621a5f	-0.05520093
241	0xbe08750b	-0.13325898
242	0xbd1a559e	-0.037679307
243	0xbdf12d53	-0.11776223
244	0x3cce8fbe	0.025215026
245	0xbc1b7fe6	-0.009490943
246	0xbd35cefa	-0.04438684
247	0xbcb3bf33	-0.021941757
248	0xbe35e58b	-0.17763345
249	0x3d524eb4	0.05134459
250	0x3dcf5814	0.101242214
251	0xbd9bcd2a	-0.07607491
252	0x3b1a3a40	0.0023533255
253	0x3afe8351	0.0019417797
254	0x3d2a8b40	0.041636705
255	0x3d505b82	0.05086852

fc2.bias f4 [400]
0	0xbd94ff45	-0.07275251
1	0x3e21860a	0.15773788
2	0xbd1d8c8b	-0.03846411
3	0xbded6e18	-0.11593264
4	0x3ba4ca74	0.005029017
5	0x3de44215	0.11145417
6	0xbd88af4a	-0.06674059
7	0xbdd89ea0	-0.1057713
8	0xbddff6ca	-0.10935743
9	0x3cb4aca7	0.022054983
10	0x3c6f93d0	0.014622644
11	0x3c209f84	0.0098036565
12	0xbd84ff82	-0.06494047
13	0xbd0a155c	-0.033711776
14	0x3e13b208	0.14423382
15	0xbcb44bf7	-0.02200888
16	0xbd3a9624	-0.04555334
17	0xbd30a481	-0.043125633
18	0xbb5d2742	-0.0033745323
19	0x3d57a6d0	0.05264932
20	0xbd74dfaf	-0.059783634
21	0xbcd672dc	-0.026177816
22	0xbb0859f8	-0.0020805579
23	0x3c5c456b	0.013444285
24	0x3c418a6e	0.011812789
25	0x3db9160f	0.090374105
26	0xbd40cd78	-0.04707095
27	0xbdbbebc0	-0.09175825
28	0x3c712d5d	0.014720288
29	0x3d84649d	0.06464503
30	0xbd05b225	-0.032640595
31	0x3cde3025	0.027122566
32	0xbca97c1d	-0.020689065
33	0x3ce07504	0.027399547
34	0x3ccb1a86	0.02479292
35	0xbcf3ec0c	-0.029775642
36	0x3dd08b41	0.101828106
37	0x3dbf04e9	0.093271084
38	0x3ccac377	0.024751408
39	0x3c270053	0.010192948
40	0x3c63b24a	0.013897488
41	0xbd938a4e	-0.07204114
42	0x3b14f3d0	0.0022728331
43	0xbd140fc3	-0.036147844
44	0xbd41f1a2	-0.04734958
45	0x3a8dd0f5	0.001081972
46	0x3e68d723	0.22738318
47	0x3cc1d8bd	0.02366292
48	0x3d6d9149	0.057999883
49	0x3e24d5b8	0.16097152
50	0x3c0836cd	0.008313847
51	0x3c8966cd	0.016772652
52	0x3d520996	0.051278673
53	0xbde3c9aa	-0.11122449
54	0xbbe5f192	-0.007017323
55	0x3e9174e9	0.28409508
56	0x3c0fb7c3	0.00877184
57	0x3cbb38a6	0.02285416
58	0xbcc3b407	-0.023889555
59	0xbd33a925	-0.04386248
60	0x3a0d0276	0.000537909
61	0xbdaa33ad	-0.083106376
62	0x3c354446	0.011063641
63	0xbbc87ebb	-0.006118623
64	0x3e5a6be0	0.21330214
65	0xbd6e6661	-0.058203105
66	0x3c96e99a	0.018421937
67	0xbd34776b	-0.0440592
68	0x3d07632e	0.03305357
69	0x3d1a59bf	0.037683245
70	0x3e718c3e	0.23588654
71	0xbc80ec37	-0.015737636
72	0xbd7758dc	-0.060387477
73	0xbd750fee	-0.059829645
74	0xbcd78015	-0.026306191
75	0xbd9df974	-0.07713595
76	0xbbe03f67	-0.0068434956
77	0xbdf99d23	-0.121881746
78	0xbd153720	-0.036429524
79	0xbd4e91e8	-0.050432116
80	0xbd892d42	-0.06698085
81	0x3d54da7e	0.051966183
82	0xbd7b1158	-0.061295837
83	0x3e592a06	0.21207437
84	0xbe161551	-0.14656569
85	0x3c9de7d8	0.01927559
86	0x3da5cb85	0.08095459
87	0x3c2a8f3b	0.010410125
88	0xbb10f712	-0.0022119922
89	0xbd277c02	-0.040889747
90	0x3d76e865	0.060280222
91	0xbda7dad5	-0.08196036
92	0x3cd048ca	0.025425334
93	0x3e1c5fac	0.15270871
94	0x3e8aaac9	0.27083424
95	0xbda042e2	-0.07825257
96	0xbcea86d4	-0.028628744
97	0xbd1d6928	-0.038430363
98	0x3d64c950	0.05585605
99	0xbd8b4647	-0.06800514
100	0xbd2ea37e	-0.042636387
101	0xbd8d9178	-0.069125116
102	0xbe62fa7e	-0.22165868
103	0x3d26de82	0.040739544
104	0xbd84fa14	-0.06493011
105	0xbda7e172	-0.08197297
106	0x3cced993	0.025250232
107	0x3e52fe39	0.20604791
108	0xbc9aaefc	-0.018882267
109	0xbd173113	-0.036912035
110	0x3b9077a4	0.0044087935
111	0x3c07784c	0.008268427
112	0xbd6d7b64	-0.057979003
113	0x3d0aacc0	0.033856153
114	0xbe01d9d4	-0.12680751
115	0x3d852ddc	0.065028876
116	0x3dc4ca5c	0.096089095
117	0xbd2b091d	-0.041756738
118	0xbd8faa9d	-0.07014964
119	0x3cb009bb	0.021489015
120	0xbcf93a70	-0.030423373
121	0xbd5f4196	-0.054505907
122	0xbca49c65	-0.020094106
123	0xbe313cbd	-0.17308326
124	0x3c0653a1	0.00819865
125	0x3bafaa4b	0.0053608767
126	0xbd0460d3	-0.0323189
127	0x3d91c33b	0.071173154
128	0x3c53ff75	0.012939324
129	0xbe382ee7	-0.17986642
130	0x3dfc6be2	0.123252645
131	0x3d16fa73	0.03685994
132	0x3b110515	0.0022128273
133	0xbd05a666	-0.032629393
134	0xbdeb537d	-0.114905335
135	0x3ca0fd46	0.01965202
136	0x3cfadf8c	0.030624174
137	0xbdbcdda9	-0.09221966
138	0xbd5923f5	-0.053012807
139	0xbd1e63ac	-0.038669273
140	0x3e0f7983	0.14011197
141	0x3d886070	0.06659019
142	0x3e400244	0.18750864
143	0xbcfd854a	-0.030947346
144	0xbd12af8a	-0.03581194
145	0x3b7173bd	0.0036842667
146	0xbd672617	-0.05643281
147	0x3bc45a45	0.0059922063
148	0x3caf491a	0.021397162
149	0x3bd6d9f8	0.0065567456
150	0x3d6c08ea	0.05762569
151	0x3bf291d4	0.007402638
152	0xbcfe714d	-0.031059885
153	0xbd901830	-0.070358634
154	0x3daac365	0.0833805
155	0x3dac3f0b	0.08410462
156	0xbd3de869	-0.04636422
157	0xbc4626ba	-0.012094194
158	0x3e8fc2e6	0.28078383
159	0xbd260a4c	-0.040537164
160	0xbd972df7	-0.07381814
161	0x3cbbeda2	0.02294046
162	0xbcc416be	-0.023936626
163	0x3e061fbb	0.13098042
164	0xbd2028b0	-0.039101303
165	0xbe2b8fbf	-0.16754054
166	0xbda9f51f	-0.08298706
167	0x3d074da6	0.033033036
168	0xbd676fa1	-0.056502942
169	0xbd13de44	-0.03610064
170	0x3d33db38	0.043910235
171	0xbda5b8b3	-0.08091869
172	0x3dd17e2f	0.10229146
173	0xbcb9b637	-0.022669895
174	0xbc88e6e6	-0.016711663
175	0x3b7cb3ac	0.0038559241
176	0xbcaa47a4	-0.020786114
177	0xbd27f0d1	-0.041001145
178	0x3c83dd54	0.016096748
179	0x3d30e179	0.043183777
180	0x3db569a7	0.08858042
181	0xbd133e5a	-0.035948135
182	0xbcd5564b	-0.026042124
183	0xbd12896e	-0.035775594
184	0xbc8d9ab6	-0.017285686
185	0x3cb3cb76	0.021947604
186	0x3e298048	0.16552842
187	0x3c9036d8	0.017604277
188	0x3dcae757	0.09907406
189	0x3d211883	0.039330017
190	0xbd8bea24	-0.06831768
191	0xbcfd344c	-0.030908726
192	0x3a56e197	0.00081970677
193	0xbdacefed	-0.084442
194	0x3c4a5fb7	0.012351922
195	0x3cc4c0ed	0.024017775
196	0xbd37bc3d	-0.044857252
197	0xbd96ba68	-0.07359773
198	0xbdb62acd	-0.08894882
199	0x3d24a2bb	0.040194254
200	0xbc73eb11	-0.014887587
201	0xbbc1da01	-0.0059158807
202	0x3d10acc6	0.03532102
203	0x3d8d3598	0.06894988
204	0x3ca45823	0.020061558
205	0x3d1d77ed	0.03844445
206	0x3dc18502	0.09449197
207	0xbd66b39f	-0.056323644
208	0xbd17bfa6	-0.037048005
209	0x3cd8791e	0.02642494
210	0x3d31f60d	0.043447543
211	0xbebe7af3	-0.37203178
212	0xbd378e3c	-0.04481338
213	0x3d6c7f82	0.05773879
214	0xbc22aa3d	-0.009928283
215	0x3d94ed31	0.07271803
216	0xbc440e5f	-0.011966317
217	0x3c9fbb90	0.019498616
218	0x3d4d665d	0.05014645
219	0x3dfacf38	0.12246555
220	0xbd583b42	-0.052790888
221	0x3d7ff53c	0.062489733
222	0x3e30ca0b	0.17264573
223	0xbd82d239	-0.06387753
224	0x3cf6e1af	0.030136911
225	0x3c8757d1	0.016521366
226	0x3dc0ce13	0.094143055
227	0x3d710ad1	0.058848206
228	0xba5b0eb3	-0.00083563774
229	0xbd9053b7	-0.07047217
230	0x3cf24516	0.029573958
231	0x3c9122db	0.017716816
232	0xbd80831e	-0.062750086
233	0xbde366dc	-0.11103603
234	0xbdc44275	-0.09582988
235	0x3cf246c7	0.029574765
236	0x3cb35934	0.021893121
237	0x3d8dd8b2	0.06926097
238	0xbc7e25e8	-0.015511967
239	0x3c4f00c8	0.012634464
240	0xbdb99e2c	-0.09063372
241	0xbd307b5d	-0.0430864
242	0xbd31ced9	-0.043410156
243	0xbd6efcd4	-0.058346584
244	0xbdf4d03b	-0.11953779
245	0xbc6f634f	-0.014611079
246	0x3c23a2db	0.009987558
247	0xbb0763db	-0.0020658884
248	0xbdaddd23	-0.08489444
249	0xba631a41	-0.0008663275
250	0xbc3ce86d	-0.011530024
251	0x3e4154f3	0.18880062
252	0xbd37bf38	-0.044860095
253	0xbe172456	-0.14759955
254	0x3d19719f	0.037461873
255	0xbdb8225c	-0.089909285

fc3.weight f4 [25, 400]
0	0x3d1fd5f5	0.039022405
1	0x3d14293f	0.036172148
2	0x3ca6062e	0.020266619
3	0x3e2978d9	0.16550006
4	0xbc07c1fa	-0.008285994
5	0xbdc16fca	-0.0944515
6	0x3d21c50a	0.03949455
7	0xba1e19f1	-0.0006031087
8	0x3d3416f2	0.043967195
9	0xbc275de4	-0.010215256
10	0x3d35fa0d	0.04442792
11	0xbd0e6e1c	-0.034772977
12	0xbcb98506	-0.022646438
13	0x3c97f04b	0.018547198
14	0xbc09e700	-0.008416891
15	0xbd302869	-0.043007288
16	0x3c851ec4	0.016250022
17	0x3d259e6b	0.040434282
18	0x3cfb4384	0.030671842
19	0x3e0e2038	0.13879478
20	0xbcae8bb6	-0.021306854
21	0xbd30a039	-0.04312155
22	0x3d07ee1d	0.033186067
23	0x3cd327cb	0.02577581
24	0x3cd5c82d	0.026096428
25	0xbd0fa11c	-0.035065755
26	0xbc490369	-0.012268879
27	0xbd772bb6	-0.06034442
28	0xbc8a3baf	-0.016874162
29	0x3e13dfb5	0.14440806
30	0x3daa8597	0.083262615
31	0x3a7f04b3	0.0009728178
32	0xbd1f5f81	-0.03890944
33	0x3cb2f6fb	0.021846285
34	0x3d17a2a3	0.037020337
35	0x3c26387e	0.010145305
36	0x3d2bb8eb	0.0419244
37	0x3ce1cae1	0.02756256
38	0x3d32fbdb	0.04369722
39	0xbd8c18a1	-0.06840635
40	0xbc0b1969	-0.008489945
41	0x3d542e5d	0.051802028
42	0xbd33831e	-0.043826215
43	0x3ca16273	0.019700265
44	0xbd2927d0	-0.041297734
45	0xbd7571d5	-0.05992301
46	0xbdc8347d	-0.09775636
47	0xbdb0d4ec	-0.086343616
48	0xbd0652d8	-0.03279385
49	0xbdb6a531	-0.089182265
50	0x3d746095	0.05966242
51	0xbd17a44e	-0.037021928
52	0xbe086cc5	-0.13322742
53	0x3d59ee3d	0.053205717
54	0x3d2a4e2d	0.04157846
55	0xbd81ed7f	-0.06344127
56	0x3bac5b52	0.0052599097
57	0x3d151970	0.036401212
58	0x3ca03110	0.019554645
59	0xbd135219	-0.035966966
60	0x3c7534c4	0.014966194
61	0xbd048819	-0.032356355
62	0x3d17e60e	0.03708463
63	0xbd17928d	-0.037004996
64	0xbe9b314b	-0.30311045
65	0xbd1dfeac	-0.038572952
66	0x3d3ee54f	0.046605404
67	0xbc086594	-0.008324999
68	0xbdffc47b	-0.124886476
69	0x3d36c17a	0.044618107
70	0x3d98efc2	0.07467605
71	0xbd77cf5e	-0.060500495
72	0xbb7d2910	-0.0038629211
73	0x3cc0911e	0.023506697
74	0x3c949f67	0.018142415
75	0x3b2ff6f8	0.0026850086
76	0x3c897414	0.016778983
77	0x3d8381ad	0.06421218
78	0xbd2a1e6f	-0.04153293
79	0x3c071753	0.008245307
80	0x3d864e98	0.06557959
81	0xbe35e271	-0.17762162
82	0xbc82d192	-0.015969072
83	0xbec39377	-0.38198444
84	0x3dfa9551	0.12235511
85	0xbdd090e0	-0.10183883
86	0xbe197626	-0.14986476
87	0x3cce514d	0.025185252
88	0x3cc5fc07	0.024168028
89	0x3cac080e	0.020999935
90	0xbc31d50b	-0.010854016
91	0x3c2b4e42	0.01045567
92	0x3b1a8867	0.0023579837
93	0xbd214a86	-0.03937771
94	0x3e03d97f	0.12875937
95	0x3cd63c03	0.026151663
96	0xbd784db9	-0.060620997
97	0x3d08b8b9	0.03337929
98	0xbb737733	-0.0037149906
99	0xbe53cf77	-0.2068461
100	0x3db7ad64	0.089686185
101	0x3c89bd6d	0.016813958
102	0xbd93f803	-0.07225039
103	0x3de11757	0.1099078
104	0x3c200739	0.009767347
105	0xbd4cb292	-0.049974985
106	0xbce3a45b	-0.027788332
107	0xbe907873	-0.28216895
108	0x3c593bbb	0.01325887
109	0x3d535bd7	0.051601257
110	0xbd596358	-0.053073257
111	0x3c630ff1	0.013858781
112	0xbc61807e	-0.013763545
113	0x3d848322	0.06470324
114	0x3ddb7377	0.107153825
115	0x3d8df928	0.069322884
116	0x3d54e4e2	0.051976092
117	0x3b489530	0.00306065
118	0xbebf6d43	-0.37388048
119	0xbb41ca4b	-0.002957004
120	0x3b63067b	0.0034641314
121	0x3c3b72c9	0.011440941
122	0x3cecf538	0.028925523
123	0xb9da4bb3	-0.000416366
124	0x3baeea1b	0.005337966
125	0x3c604b84	0.013689879
126	0x39b30860	0.0003414778
127	0x3cc51c10	0.024061233
128	0xbd737feb	-0.059448164
129	0x3ddfa29e	0.10919689
130	0xbe45b4e6	-0.19307289
131	0xbc4daead	-0.012553853
132	0xbd4c1610	-0.049825728
133	0x3dae8e87	0.08523279
134	0xbe0b2992	-0.13590077
135	0xbcffd6c3	-0.031230336
136	0x3d169759	0.03676543
137	0xbd3aee42	-0.045637377
138	0x3b7b8c19	0.0038383065
139	0xbc55ce65	-0.013049697
140	0x3dd254e4	0.10270098
141	0xbd16e02c	-0.03683488
142	0xbdc5ee21	-0.0966456
143	0x3d01a2bc	0.031649336
144	0x3e50d068	0.20392
145	0x3d61c7e8	0.055122286
146	0xbd0e10e9	-0.034684096
147	0xbd883429	-0.06650574
148	0xbeaccc18	-0.3374946
149	0x3daa17ac	0.08305296
150	0x3d8af67d	0.06785295
151	0x3cd5eb8f	0.0261133
152	0x3d0617db	0.032737594
153	0x3c8726e8	0.016498044
154	0xbd44b1a1	-0.048020963
155	0xbc127be6	-0.0089406725
156	0x3b52e4d7	0.0032179856
157	0xbcc44f22	-0.023963515
158	0x3dae9f85	0.0852652
159	0xbd1f96ac	-0.03896205
160	0x3d4465d6	0.04794868
161	0x3c39fe34	0.011352111
162	0x3cb0502d	0.021522606
163	0x3d5fe9ce	0.054666333
164	0x3c7ed67f	0.01555407
165	0x3e7b465e	0.24538562
166	0xbd43e06c	-0.047821447
167	0xbc33dda6	-0.010978138
168	0xbc052ccf	-0.008128359
169	0xbc1e7ee6	-0.00967381
170	0xbdc985b7	-0.09839957
171	0x3dbbd88c	0.091721624
172	0x3e28be38	0.16478813
173	0xbcd3c098	-0.025848672
174	0x3a799161	0.00095202593
175	0xbc4047e2	-0.011735888
176	0xbc508f15	-0.012729426
177	0xbca86ac5	-0.020558724
178	0xbbf4ee97	-0.007474731
179	0x3d7c2390	0.061557353
180	0xbe5d4858	-0.21609628
181	0x3cac36bb	0.021022191
182	0xbce6a811	-0.028156312
183	0x3dbfcc03	0.09365084
184	0xbc91dfd2	-0.017806921
185	0x3c3d49a5	0.011553203
186	0x3ccaa75e	0.02473801
187	0xbd37b229	-0.04484764
188	0x3d0a8e71	0.03382725
189	0xbd4cc25d	-0.049990047
190	0x3d86b26a	0.065769985
191	0xbd152b8b	-0.03641848
192	0x3dfe0fe5	0.124053754
193	0xbcc691ea	-0.0242395
194	0xbcdd6835	-0.027027229
195	0xbccc4482	-0.02493501
196	0xbccb86dc	-0.02484458
197	0xbf28d4bd	-0.6594961
198	0xbedbb7b1	-0.42913583
199	0xbd28963d	-0.041158903
200	0xbc887137	-0.016655548
201	0xba7c166b	-0.00096163776
202	0x3ba9f542	0.0051867077
203	0xbd164c17	-0.03669366
204	0x399c496a	0.00029809336
205	0x3d68797e	0.05675649
206	0x3dfb6b14	0.12276283
207	0x3c1b31b4	0.009472299
208	0xbc58d1cd	-0.013233614
209	0x3d3d2d95	0.04618605
210	0xbde87564	-0.113505155
211	0xbde42944	-0.11140683
212	0xbd4fbed3	-0.050719094
213	0x3beac032	0.0071640247
214	0xbdaa8a19	-0.08327121
215	0x3dc76f70	0.09738052
216	0xbc984b15	-0.01859049
217	0xbd78214a	-0.060578622
218	0xbd8a8df6	-0.06765358
219	0xbe9cb637	-0.3060777
220	0xbd94578f	-0.07243263
221	0x3cb098ce	0.021557238
222	0xbdac5359	-0.08414335
223	0xbe30665e	-0.1722655
224	0xbbab7757	-0.0052327323
225	0x3baa9d82	0.0052067647
226	0xbe48a780	-0.19595146
227	0xbcad97cd	-0.021190548
228	0xbd255ae5	-0.040369887
229	0xbd0d6816	-0.034523092
230	0xbd3374f5	-0.04381271
231	0x3c9b4ccd	0.01895752
232	0xbd48c0bc	-0.04901193
233	0x3d84dc38	0.06487316
234	0xbbabfd42	-0.0052486965
235	0xbd1b5cd2	-0.037930317
236	0x3bf45a25	0.007457035
237	0x3d729c7d	0.05923127
238	0xbd6d7e65	-0.057981867
239	0x3db12a1d	0.086506106
240	0xbda4120c	-0.08011255
241	0x3d6efc85	0.05834629
242	0xbd5ba325	-0.053622384
243	0x3bfdea9c	0.007748915
244	0xbcf4d290	-0.02988556
245	0x3d7a4f3f	0.06111073
246	0xbf03674a	-0.5132948
247	0x3c8b2191	0.01698378
248	0xbd49005c	-0.04907261
249	0xbd104333	-0.035220336
250	0x3c6d2c71	0.014475928
251	0xbe0a61cb	-0.13513868
252	0xbd4b3567	-0.049611475
253	0x3c762ac5	0.0150248455
254	0xbce85655	-0.028361479
255	0xbddbe284	-0.10736564

fc3.bias f4 [25]
0	0xbd9b897c	-0.075945824
1	0xbcdd09a4	-0.026982136
2	0xbc15f665	-0.009152983
3	0x3bb0929d	0.0053885714
4	0xbd8510bc	-0.064973325
5	0x3c1df649	0.0096412385
6	0x3c2a4f49	0.01039488
7	0xbe070b14	-0.1318782
8	0xbd94e669	-0.0727051
9	0xbdad8fdc	-0.084747046
10	0xbddf0a83	-0.10890677
11	0xbdb68cb8	-0.08913559
12	0xbccb3229	-0.024804192
13	0xbd961a86	-0.07329278
14	0xbced29e5	-0.028950641
15	0xbdc9f1cd	-0.09860573
16	0xbc51ccb5	-0.012805154
17	0xbdc882d3	-0.09790578
18	0xbd8529a2	-0.065020815
19	0xbd47b189	-0.048753295
20	0x3c711737	0.0147150075
21	0xbd92735d	-0.0715091
22	0xbe2f9b0c	-0.1714899
23	0xbb5dcfb5	-0.0033845727
24	0xbcbdeafe	-0.023183342
